model1.pkl (torch, 84759 bytes, 6 tensors)

layers.0.bias f4 [16]
-0.1854978 0.12705803 -0.13318044 0.28261912 -0.24476 0.27169797 -0.012517674 0.23910205
-0.37708834 -0.68916786 -0.9478061 0.16048037 0.04448242 -0.86191404 -0.34497708 -0.53727853
00000000: 23f3 3dbe 801b 023e 7460 08be 74b3 903e
00000010: 5ea2 7abe ff1b 8b3e ee16 4dbc 2bd7 743e
00000020: b911 c1be 4e6d 30bf 6ca3 72bf f754 243e
00000030: 3333 363d 66a6 5cbf d6a0 b0be 168b 09bf

layers.0.fc_self.weight f4 [16, 602]
-0.11218292 -0.18842457 -0.24476689 -0.08488824 -0.13742763 -0.03399719 -0.09173888 -0.1507541
0.05326367 0.0016899909 0.067608796 -0.049369957 0.016870515 -0.19852284 -0.2284574 -0.07434074
-0.10693035 0.088806815 -0.112271644 0.035678454 -0.036317974 -0.12840258 -0.118684456 0.01595193
-0.22193663 0.036272895 0.09210014 0.01213366 -0.097955234 0.059672933 -0.09477274 0.25508353
0.061658077 0.12850003 -0.034154512 -0.13428675 -0.060908515 0.050879627 -0.033978257 0.19267997
0.14574383 -0.15717563 0.094037324 -0.060682073 -0.07999249 -0.19737545 -0.16201115 -0.11298619
0.14919575 -0.10104991 0.15099299 -0.024158405 0.021235537 -0.15087953 0.13035753 -0.1830395
0.04867838 -0.037336506 0.37878248 0.0029589422 0.19430862 -0.027543137 -0.06446683 0.03009784
0.0707283 -0.0077092135 -0.049196552 -0.025804833 0.09503895 -0.11353935 0.017007984 0.10536506
-0.051951222 0.08662653 0.15144984 0.16144711 -0.07927941 0.13144471 0.34050918 0.09962984
-0.009389643 0.10632461 0.1793354 0.10770011 0.041148014 0.057319447 0.19803615 -0.16976747
0.0050099962 -0.15947872 0.058237944 -0.17189102 -0.13475035 0.26647967 0.14655454 -0.006613787
0.053920265 0.009632619 0.027047342 -0.1173055 -0.046774976 0.081660084 0.1776939 0.11702356
-0.06520763 0.21801996 0.069476485 0.031068288 -0.07043777 -0.08698689 -0.17996319 -0.039003406
0.2661178 0.15879545 -0.08050129 0.05997319 0.011089482 -0.063593835 -0.23261905 0.06641916
-0.021127362 -0.0039812475 0.07668179 0.064315885 0.024024997 -0.05841507 -0.011171687 -0.28166938
-0.08902209 0.032192416 0.25741556 -0.06558694 -0.050458554 -0.29123306 0.20354001 0.19724208
-0.08029094 -0.046240807 -0.01641796 -0.2532391 0.08416706 0.0028397948 0.014743374 -0.04316309
0.06698058 0.11183903 0.1691125 -0.08733432 -0.12696323 0.08210071 0.03561825 -0.061549507
-0.056697067 -0.030214617 0.22933824 -0.08087951 -0.12070394 -0.019473162 -0.088318266 -0.10365207
0.029248288 -0.2086358 0.03243878 -0.06796194 -0.08540256 -0.23536865 0.252425 0.058242947
-0.067463085 -0.05499479 0.16282019 -0.04686771 -0.13339859 0.04067653 0.13972218 0.010252411
0.009213634 -0.14486463 0.0043056696 0.096529834 -0.047276836 -0.17711072 -0.0004927278 0.103975765
-0.018813929 -0.21473424 0.06267543 -0.07474169 -0.10809971 -0.08972855 -0.03157592 -0.017367197
0.10449548 0.037597157 -0.07350999 0.0051539387 0.07501565 -0.08594252 -0.073870555 -0.07544275
-0.03211815 0.1614415 -0.116373554 -0.11474164 -0.116663486 0.17167 0.15367976 0.025783455
-0.056899473 0.06480833 0.040165484 -0.19911662 0.08065047 0.278243 -0.30294153 0.27451715
-0.05091645 0.1760976 -0.019273933 -0.07746307 0.41260743 0.024427531 0.18794586 -0.15265955
-0.0122612165 0.116721384 -0.05605052 0.029435946 0.005714007 -0.051151104 -0.06254134 -0.1318014
-0.1455437 -0.16224155 0.046153046 -0.11661269 -0.17022604 -0.034297977 0.07416574 -0.21451585
-0.091007076 0.13930957 0.10080624 -0.088392854 0.23772457 -0.124101505 -0.10362594 0.10069414
0.092815295 -0.15858912 -0.19065246 -0.056452896 -0.15820688 -0.018097475 0.068551205 -0.20971207
00000000: 29c0 e5bd 5ff2 40be 2ca4 7abe e3d9 adbd
00000010: d4b9 0cbe a340 0bbd 98e1 bbbd 485f 1abe
00000020: 022b 5a3d af82 dd3a 7b76 8a3d 2738 4abd
00000030: 0934 8a3c 9249 4bbe bdf0 69be f53f 98bd
00000040: 4dfe dabd 59e0 b53d adee e5bd 9223 123d
00000050: 28c2 14bd f77b 03be d610 f3bd 9fad 823c
00000060: 5b43 63be e392 143d 009f bc3d 42cc 463c
00000070: c19c c8bd 9b6b 743d 3618 c2bd 4f9a 823e
00000080: 2e8d 7c3d 8395 033e 9ae5 0bbd 7782 09be
00000090: 357b 79bd 2867 503d c92c 0bbd e64d 453e
000000a0: df3d 153e a6f2 20be a496 c03d c48d 78bd
000000b0: 1ad3 a3bd ca1c 4abe 40e6 25be 4e65 e7bd
000000c0: c5c6 183e 41f3 cebd e89d 1a3e d9e7 c5bc
000000d0: 26f6 ad3c 2a80 1abe 727c 053e b56e 3bbe
000000e0: fb62 473d 2aee 18bd c7ef c13e d0ea 413b
000000f0: d7f8 463e 25a2 e1bc 2f07 84bd bf8f f63c
00000100: 00da 903d 929d fcbb 5382 49bd a864 d3bc
00000110: c8a3 c23d 5287 e8bd 5454 8b3c a3c9 d73d
00000120: ceca 54bd 4069 b13d ab15 1b3e 6452 253e
00000130: 3e5d a2bd 7199 063e 3857 ae3e bb0a cc3d
00000140: 04d7 19bc b8c0 d93d b3a3 373e e091 dc3d
00000150: d28a 283d ccc7 6a3d fdc9 4a3e 86d7 2dbe
00000160: e52a a43b 644e 23be e98a 6e3d 3304 30be
00000170: fffb 09be 0670 883e 6512 163e 77b8 d8bb
00000180: 7fdb 5c3d 22d2 1d3c 6392 dd3c de3d f0bd
00000190: 1e97 3fbd 673d a73d 64f5 353e 0caa ef3d
000001a0: 948b 85bd a040 5f3e b049 8e3d ec82 fe3c
000001b0: ad41 90bd 2f26 b2bd 4548 38be 09c2 1fbd
000001c0: 9840 883e 469b 223e dcdd a4bd 73a6 753d
000001d0: a9b0 353c 7c3d 82bd b033 6ebe c506 883d
000001e0: 4a13 adbc 2075 82bb 580b 9d3d 0cb8 833d
000001f0: 12d0 c43c a444 6fbd 7409 37bc f836 90be
00000200: 3751 b6bd 32dc 033d f9cb 833e 7252 86bd
00000210: a1ad 4ebd 801c 95be cb6c 503e d4f9 493e
00000220: 946f a4bd 0067 3dbd f57e 86bc 8ea8 81be
00000230: c85f ac3d da1b 3a3b 318e 713c c8cb 30bd
00000240: 1d2d 893d dd0b e53d d42b 2d3e 56dc b2bd
00000250: a602 02be 6b24 a83d 71e4 113d 561b 7cbd
00000260: 2f3b 68bd a584 f7bc a5d7 6a3e 28a4 a5bd
00000270: a133 f7bd 2e86 9fbc 35e0 b4bd 8947 d4bd
00000280: 1b9a ef3c a0a4 55be 87de 043d a12f 8bbd
00000290: 8ae7 aebd 7b04 71be d93d 813e 2890 6e3d
000002a0: 162a 8abd 3842 61bd 56ba 263e 5bf8 3fbd
000002b0: a499 08be 6f9c 263d 5513 0f3e baf9 273c
000002c0: c8f4 163c 6557 14be 9316 8d3b 6fb1 c53d
000002d0: 5ba5 41bd 835c 35be 672a 01ba 3ff1 d43d
000002e0: ab1f 9abc 4be3 5bbe fa5b 803d 2c12 99bd
000002f0: 6163 ddbd 9ac3 b7bd c055 01bd a745 8ebc
00000300: ba01 d63d 7aff 193d 688c 96bd 5fe2 a83b
00000310: cea1 993d a202 b0bd 7249 97bd ba81 9abd
00000320: 528e 03bd ec50 253e 4255 eebd aafd eabd
00000330: 44ed eebd 43ca 2f3e 3a5e 1d3e d337 d33c
00000340: 6c0f 69bd 3bba 843d 9084 243d 3ae5 4bbe
00000350: 132c a53d de75 8e3e 271b 9bbe 838d 8c3e
00000360: c48d 50bd ee52 343e 5ee4 9dbc f5a4 9ebd
00000370: 4841 d33e 3f1c c83c e174 403e c952 1cbe
00000380: 45e3 48bc 9f0b ef3d 3b95 65bd a723 f13c
00000390: 913c bb3b d283 51bd ad15 80bd f2f6 06be
000003a0: 6809 15be a622 26be fa0a 3d3d a2d2 eebd
000003b0: bc4f 2ebe 097c 0cbd 35e4 973d 0baa 5bbe
000003c0: eb61 babd 2ba7 0e3e 8173 ce3d 5007 b5bd
000003d0: 126e 733e ee28 febd d639 d4bd bb38 ce3d
000003e0: f215 be3d 3065 22be 663a 43be 273b 67bd
000003f0: fc00 22be 2841 94bc 9364 8c3d c3be 56be

layers.0.fc_neigh.weight f4 [16, 602]
-0.042641856 0.05268228 -0.3436548 -0.42933813 -0.18045838 -0.5041691 0.06602758 0.027857015
-0.12705107 0.24268012 0.4167739 0.07823995 0.21933044 -0.39289534 0.083059244 0.08363853
-0.27016816 0.42982092 -0.08684739 0.121082835 -0.17230311 -0.21395366 -0.51735413 -0.103159286
0.13990226 0.3016841 0.1830895 -0.24522269 -0.32696718 -0.14855012 -0.7090428 0.6883956
-0.2876883 0.19448942 -0.0848829 -0.20934759 -0.05254785 0.062351763 0.03172799 0.18969889
0.18722428 -0.3688194 0.11218559 -0.29347482 -0.21814133 -0.0051051835 -0.05011503 -0.4351274
0.24387532 -0.13671206 -0.0201459 -0.14848645 -0.07475474 -0.3236791 0.38051307 -0.40625846
-0.39839727 -0.19886677 0.34218448 0.037852097 0.36134 -0.27276456 -0.3061437 0.25986096
0.24758653 0.21706095 -0.2694417 0.16381685 0.16406046 0.1260255 -0.08168259 0.38753474
-0.18228565 0.30367714 0.060557377 0.0973963 -0.44261488 0.004702937 0.5885335 0.009312289
-0.15692468 0.35405508 -0.015251015 0.09120436 0.11445491 0.24192238 0.24052154 0.025989536
-0.17475292 -0.15775476 0.010067299 -0.049238298 0.067831665 -0.06666393 0.18641427 -0.368784
-0.0345543 0.1864447 -0.17205425 -0.18106747 -0.09452848 0.25609222 0.35595217 0.26359674
0.090550736 0.34896216 0.037844434 0.2009326 -0.019325837 0.029521827 -0.4431661 0.020346852
0.44970763 0.27908796 -0.27830005 0.19674662 0.2059164 0.18832245 -0.01572598 0.1620485
0.1300411 -0.05435138 -0.048669193 -0.044025023 0.093931444 -0.20200722 0.17015614 -0.49392554
-0.26771593 0.0680559 0.27244985 0.30889004 -0.2517703 -0.61375284 0.019989531 0.4589116
-0.10493839 -0.05933788 -0.1485484 0.106028415 0.19387744 0.39930823 0.14145821 -0.24291952
0.3061069 0.3846392 0.48227623 -0.37228367 -0.25329924 -0.06314419 -0.015656 0.030063407
0.05368561 0.15085831 0.3316181 0.05609273 -0.27269274 -0.4064484 -0.18130952 -0.22354367
-0.14302212 -0.71707153 -0.087517686 -0.15920125 -0.09566779 -0.08171685 0.050400894 0.13409096
-0.06290242 -0.23530945 0.07758385 -0.39445826 -0.28330556 -0.09553266 0.32744703 0.13453712
0.3239331 0.25805327 0.047052808 -0.121659584 -0.40030548 -0.07084489 -0.13175292 0.088431515
-0.1296107 0.013710202 0.2811969 0.2378027 -0.32766944 -0.39538708 0.19862267 -0.02355536
-0.27336478 0.22751158 -0.122578464 0.081827946 0.48964357 -0.6106674 0.18500446 -0.28980818
-0.40162924 0.37608263 -0.23779601 -0.32320145 -0.1055602 0.20572045 0.27726638 -0.49200997
0.32376906 0.19395658 0.20020795 -0.47176737 0.37607375 0.45485678 -0.52639097 0.5144443
0.14404413 0.02177281 -0.024208767 0.24135634 0.76794076 0.4027457 0.16060218 -0.12385568
0.18484597 -0.15780167 0.1180261 -0.15055183 -0.14624663 0.0040479903 -0.043925576 0.02229444
-0.29906973 -0.33745906 -0.069906466 -0.42789298 -0.38287982 -0.16003744 -0.21251494 -0.24291469
-0.3816055 0.5830201 -0.08338991 0.038824894 0.22027251 -0.40918055 -0.31588334 0.3080645
-0.3144331 -0.1272843 -0.30670694 0.28678977 0.10530873 -0.2279679 -0.22125146 -0.37072104
00000000: 3aa9 2ebd 60c9 573d 86f3 afbe 35d2 dbbe
00000010: 15ca 38be 3a11 01bf 7839 873d 6534 e43c
00000020: ad19 02be 2381 783e 6363 d53e 443c a03d
00000030: 2998 603e 9429 c9be f71a aa3d ad4a ab3d
00000040: 7b53 8abe 7d11 dc3e 0bdd b1bd 47fa f73d
00000050: 3a70 30be ab16 5bbe 5271 04bf 2d45 d3bd
00000060: 8a42 0f3e 5776 9a3e d07b 3b3e a81b 7bbe
00000070: 3e68 a7be 861d 18be d483 35bf b23a 303f
00000080: e14b 93be 3c28 473e 16d7 adbd 375f 56be
00000090: 6a3c 57bd 9064 7f3d 35f5 013d 6d40 423e
000000a0: b9b7 3f3e e5d5 bcbe 8fc1 e53d 5542 96be
000000b0: 7160 5fbe 6249 a7bb 6b45 4dbd 05c9 debe
000000c0: 74ba 793e 3ffe 0bbe 0409 a5bc d50c 18be
000000d0: 0319 99bd 44b9 a5be 9cd2 c23e 1c01 d0be
000000e0: bafa cbbe bba3 4bbe ce32 af3e cd0a 1b3d
000000f0: 8e01 b93e cca7 8bbe debe 9cbe 7f0c 853e
00000100: 5387 7d3e 3a45 5e3e 43f4 89be 9bbf 273e
00000110: 77ff 273e d40c 013e 3449 a7bd f46a c63e
00000120: 17a9 3abe 927b 9b3e 030b 783d b677 c73d
00000130: 6b9e e2be 181b 9a3b 22aa 163f 9292 183c
00000140: ddb0 20be b546 b53e 65df 79bc 5ac9 ba3d
00000150: 5667 ea3d 80ba 773e 474b 763e 02e8 d43c
00000160: 6ef2 32be 778a 21be 50f1 243c 19ae 49bd
00000170: 54eb 8a3d 1987 88bd 62e3 3e3e 42d1 bcbe
00000180: cf88 0dbd 5ceb 3e3e fd2e 30be c069 39be
00000190: 2698 c1bd 851e 833e 5d3f b63e 27f6 863e
000001a0: aa72 b93d 2bab b23e c402 1b3d 47c1 4d3e
000001b0: 3851 9ebc c2d7 f13c abe6 e2be 71ae a63c
000001c0: 1440 e63e 9ee4 8e3e 587d 8ebe f277 493e
000001d0: c0db 523e 9ad7 403e c5d3 80bc 0bf0 253e
000001e0: 7e29 053e 8d9f 5ebd 5959 47bd 9553 34bd
000001f0: 215f c03d fbda 4ebe 693d 2e3e cfe3 fcbe
00000200: 1012 89be e460 8b3d 8c7e 8b3e d626 9e3e
00000210: 09e8 80be e81e 1dbf 16c1 a33c 76f6 ea3e
00000220: f0e9 d6bd 470c 73bd 121d 18be 6d25 d93d
00000230: cf87 463e 2172 cc3e 6cda 103e e5bf 78be
00000240: 0bba 9c3e 6eef c43e e9ec f63e f79b bebe
00000250: 70b0 81be be51 81bd 0341 80bc 8947 f63c
00000260: 71e5 5b3d 9a7a 1a3e d9c9 a93e 7ec1 653d
00000270: 629e 8bbe 011a d0be 34a9 39be a2e8 64be
00000280: 6474 12be 0092 37bf 793c b3bd a705 23be
00000290: 79ed c3bd 2a5b a7bd 2b71 4e3d 244f 093e
000002a0: fcd2 80bd f6f4 70be 48e4 9e3d 6ff6 c9be
000002b0: 6d0d 91be a1a6 c3bd 23a7 a73e 19c4 093e
000002c0: 8fda a53e 8f1f 843e 72ba 403d a928 f9bd
000002d0: d7f4 ccbe 2017 91bd 3dea 06be 951b b53d
000002e0: abb8 04be c1a0 603c 0af9 8f3e 8d82 733e
000002f0: 4ac4 a7be 2d70 cabe be63 4b3e 2cf7 c0bc
00000300: 78f6 8bbe ccf8 683e 6b0a fbbd 6995 a73d
00000310: 90b2 fa3e b354 1cbf cf71 3d3e bd61 94be
00000320: 59a2 cdbe e78d c03e cc80 73be a97a a5be
00000330: f22f d8bd 62a8 523e dcf5 8d3e bbe8 fbbe
00000340: 0fc5 a53e 8e9c 463e 5003 4d3e 7e8b f1be
00000350: bd8c c03e fde2 e83e 8fc1 06bf 9fb2 033f
00000360: 4e80 133e e45c b23c 7751 c6bc 1e26 773e
00000370: c497 443f af34 ce3e e674 243e 0ca8 fdbd
00000380: 4348 3d3e c396 21be abb7 f13d 422a 1abe
00000390: adc1 15be 01a5 843b 4eeb 33bd d4a2 b63c
000003a0: ab1f 99be 6fc7 acbe 1f2b 8fbd ca14 dbbe
000003b0: d308 c4be dbe0 23be 849d 59be a1be 78be
000003c0: cc61 c3be ce40 153f 54c8 aabd da06 1f3d
000003d0: 1e8f 613e 1d80 d1be 76bb a1be a1ba 9d3e
000003e0: 60fd a0be d156 02be b108 9dbe 1cd6 923e
000003f0: 1aac d73d 6b70 69be be8f 62be 26cf bdbe

layers.1.bias f4 [41]
-0.38933998 0.22675426 -0.24832049 -0.7077843 0.03778881 -0.1749854 -0.6675469 0.77223396
-0.062450457 -0.18824796 -0.11937868 -0.033405185 -0.21321447 0.10985888 0.103516854 -0.047392104
0.9349509 -0.23638932 0.1756905 -1.0906779 -0.47003904 -0.26463142 -0.090232335 0.5197923
-0.5408579 0.1853292 0.08392327 0.40498456 -0.59206533 -0.2982345 0.37130022 0.78034824
-0.6025756 0.7591304 0.49517518 -0.23405737 0.47507054 0.24678469 0.26006216 0.74694306
-0.21833037
00000000: 9257 c7be 4532 683e ba47 7ebe 5a31 35bf
00000010: 70c8 1a3d 5f2f 33be 5be4 2abf 20b1 453f
00000020: 0dcc 7fbd 13c4 40be cf7c f4bd e0d3 08bd
00000030: e554 5abe b1fd e03d a500 d43d 391e 42bd
00000040: f158 6f3f 0b10 72be 36e8 333e 559b 8bbf
00000050: f5a8 f0be c57d 87be bbcb b8bd 1c11 053f
00000060: aa75 0abf f0c6 3d3e f7df ab3d 235a cf3e
00000070: 9891 17bf 31b2 98be 101b be3e e7c4 473f
00000080: 6542 1abf 5f56 423f 9a87 fd3e bcac 6fbe
00000090: 723c f33e 20b5 7c3e de26 853e a937 3f3f
000000a0: ff91 5fbe

layers.1.fc_self.weight f4 [41, 16]
0.18917793 0.10574769 0.1646311 0.10098967 -0.023356661 0.13131604 -0.12466682 0.24439527
0.11112768 0.08212365 -0.13021572 0.13520668 0.20676953 -0.4308347 -0.33078694 0.18883657
-0.013278605 0.12220057 -0.077648275 0.117934994 0.09298943 0.083624445 0.18994232 0.14049657
0.13569659 0.14234358 0.014739142 -0.102952085 0.16698806 -0.0017432952 0.13987687 0.17762627
0.012031127 0.0792114 0.021986872 -0.109003246 -0.061046664 0.18110055 0.18017681 0.1622795
0.05274671 0.20938389 0.09921298 -0.16600512 0.037612595 0.064509995 0.0320607 0.18595386
0.008731532 0.20298792 -0.09013995 0.26009527 -0.0902895 0.22581856 0.2189492 0.30148587
-0.11218319 0.09307405 0.02180803 -0.03242278 -0.055693407 -0.19626541 0.24994877 0.031082941
0.009074545 0.101469114 0.081341244 -0.004616619 -0.09790784 0.09122693 0.15059754 0.03191968
0.051433027 0.17478445 0.09571242 -0.12896936 -0.04218628 0.1014219 0.068441495 0.17889434
0.15894434 -0.019322032 -0.07899815 0.15995906 0.06971534 -0.14283885 0.18184586 -0.26545274
-0.19418314 -0.045748573 -0.18255505 -0.15149555 0.092406936 0.115175344 0.18166406 -0.19500813
0.09479615 0.1919209 0.12456177 0.20004532 0.08701242 0.12416744 0.17285927 0.15714711
0.06598848 0.17086746 -0.080956705 0.103706196 0.034820627 -0.066740416 0.21107207 0.022308014
0.21097861 0.08825789 -0.03543715 0.08529359 -0.014687914 0.1655432 -0.03270313 0.1604385
-0.14317779 0.048825692 0.08477174 0.16052355 0.15525033 -0.293075 -0.30883798 0.05675977
0.025574982 0.015073788 0.027875088 0.08414878 0.025075577 0.08850313 0.2106904 0.015578894
-0.08994434 0.049423996 -0.174695 0.11988946 0.15533733 0.14258966 0.13973312 -0.0187999
0.15920724 0.014231648 0.039702896 0.18753515 0.078525655 0.08086023 0.001607388 0.10217405
0.0049550673 0.14284031 -0.14039911 0.10851682 -0.018708605 0.0114659 0.16204807 0.09826671
-0.039971113 -0.0026159834 0.096322164 0.020906052 -0.10710975 -0.009446317 0.23255534 -0.06502933
0.11224935 0.037359145 0.07848953 -0.17871608 0.17609422 -0.09582273 -0.18539731 0.22545074
-0.09822555 -0.11794572 0.056096457 0.18506563 0.05677022 0.16679502 -0.004676612 0.1845216
0.119270146 -0.00900587 0.009371019 -0.1291089 0.18292263 -0.53392285 0.160772 0.16039203
-0.116834685 -0.10689931 0.08365172 -0.09312587 -0.06252482 0.15595837 0.18506196 0.035163842
0.014714149 0.19997588 0.050813608 -0.15451361 0.12102679 0.09241267 0.15400584 0.12736805
0.17655006 0.20749336 0.08184233 0.059306085 0.063052215 0.0015720922 -0.34439206 0.094755284
-0.13842209 0.12033177 0.08673125 0.14016561 0.15784383 0.030962441 -0.04358083 0.11984383
0.04589006 -0.06695107 -0.14244984 0.23402452 -0.056319073 -0.07353178 0.19896543 0.009095754
-0.098227546 0.06975303 -0.0751254 0.07743721 -0.020062873 0.1100712 0.22479966 0.118682615
0.110651284 0.08564905 0.10278834 0.2205376 0.11977877 0.22127458 0.07181449 0.21753865
0.0044339234 0.1089258 0.06856688 0.14987063 0.11206119 0.038268827 0.18817493 -0.006695372
00000000: dcb7 413e 3f92 d83d 0e95 283e acd3 ce3d
00000010: 7856 bfbc b677 063e 5151 ffbd c142 7a3e
00000020: e996 e33d 7230 a83d 4557 05be 9f73 0a3e
00000030: 64bb 533e 5e96 dcbe e85c a9be 605e 413e
00000040: 828e 59bc 4b44 fa3d 0f06 9fbd e787 f13d
00000050: 3e71 be3d 4b43 ab3d 3d80 423e 55de 0f3e
00000060: 0cf4 0a3e 84c2 113e 717c 713c 8bd8 d2bd
00000070: ebfe 2a3e 487f e4ba e23b 0f3e a9e3 353e
00000080: 341e 453c 9639 a23d d01d b43c 183d dfbd
00000090: 110c 7abd 6c72 393e 4580 383e 992c 263e
000000a0: ef0c 583d bb68 563e 2d30 cb3d 3ffd 29be
000000b0: aa0f 1a3d d11d 843d 1552 033d b06a 3e3e
000000c0: b30e 0f3c 11dc 4f3e 4b9b b8bd 352b 853e
000000d0: b4e9 b8bd fb3c 673e 3834 603e 5b5c 9a3e
000000e0: 4dc0 e5bd 9c9d be3d c1a6 b23c c0cd 04bd
000000f0: c51e 64bd cdf9 48be 92f2 7f3e a7a1 fe3c
00000100: 67ad 143c 0acf cf3d 3d96 a63d 0247 97bb
00000110: e883 c8bd 2fd5 ba3d 3e36 1a3e 36be 023d
00000120: 70ab 523d b2fa 323e e004 c43d 8b10 04be
00000130: 85cb 2cbd 49b6 cf3d 0e2b 8c3d 1430 373e
00000140: 4ec2 223e 3d49 9ebc c8c9 a1bd 4fcc 233e
00000150: ebc6 8e3d 5944 12be cd35 3a3e 6ce9 87be
00000160: f2d7 46be db62 3bbd b6ef 3abe a621 1bbe
00000170: d93f bd3d 0de1 eb3d 2506 3a3e 36b0 47be
00000180: 7c24 c23d ea86 443e 3e1a ff3d aed8 4c3e
00000190: 9133 b23d 804b fe3d 0502 313e 2ceb 203e
000001a0: f824 873d e1f7 2e3e a1cc a5bd ea63 d43d
000001b0: 13a0 0e3d 33af 88bd 4723 583e 4cbf b63c
000001c0: c70a 583e 8dc0 b43d 8c26 11bd 68ae ae3d
000001d0: 94a5 70bc 2884 293e b8f3 05bd fd49 243e
000001e0: 339d 12be 73fd 473d ce9c ad3d 4960 243e
000001f0: f1f9 1e3e ed0d 96be 0320 9ebe ef7c 683d
00000200: a082 d13c 0df8 763c 4c5a e43c 3256 ac3d
00000210: 4c6b cd3c 2141 b53d 39bf 573e 9e3e 7f3c
00000220: bd34 b8bd d170 4a3d 3fe3 32be 9b88 f53d
00000230: c010 1f3e 0603 123e 3316 0f3e 3f02 9abc
00000240: 3907 233e dc2b 693c 819f 223d 3709 403e
00000250: 0fd2 a03d 0c9a a53d feae d23a a140 d13d
00000260: 1e5e a23b bb44 123e c9c4 0fbe 113e de3d
00000270: ca42 99bc 78db 3b3c eeef 253e 0f40 c93d
00000280: c0b8 23bd eb70 2bbb 8e44 c53d 2b43 ab3c
00000290: 5b5c dbbd bac4 1abc fd22 6e3e 192e 85bd
000002a0: fde2 e53d e705 193d 1ebf a03d 5901 37be
000002b0: 0b52 343e b53e c4bd cbd8 3dbe 8fdc 663e
000002c0: 7a2a c9bd 878d f1bd 66c5 653d d881 3d3e
000002d0: e487 683d 50cc 2a3e 443e 99bb 3bf3 3c3e
000002e0: e843 f43d 5b8d 13bc e788 193c 2035 04be
000002f0: 1250 3b3e 2baf 08bf 6aa1 243e cf3d 243e
00000300: 0647 efbd 07ee dabd 9851 ab3d c7b8 bebd
00000310: 030d 80bd 8db3 1f3e e280 3d3e f607 103d
00000320: 9d13 713c 7ac6 4c3e ee21 503d d138 1ebe
00000330: e5dc f73d db42 bd3d b5b3 1d3e c56c 023e
00000340: 8ac9 343e 2479 543e f49c a73d f0ea 723d
00000350: 8521 813d a90e ce3a 2854 b0be 0f0f c23d
00000360: 85be 0dbe 8170 f63d 27a0 b13d 9387 0f3e
00000370: d0a1 213e f2a4 fd3c d081 32bd af70 f53d
00000380: 37f7 3b3d a51d 89bd 5fde 11be 20a4 6f3e
00000390: d4ae 66bd d497 96bd 98bd 4b3e 5b06 153c
000003a0: 862b c9bd adda 8e3d 59db 99bd 6697 9e3d
000003b0: e55a a4bc 026d e13d e231 663e df0f f33d
000003c0: 249d e23d c568 af3d b182 d23d 9cd4 613e
000003d0: 924e f53d ce95 623e 7a13 933d 74c2 5e3e
000003e0: 724a 913b 7d14 df3d cb6c 8c3d b077 193e
000003f0: 5680 e53d c6bf 1c3d eeb0 403e da64 dbbb

layers.1.fc_neigh.weight f4 [41, 16]
0.45386493 -0.025609704 -0.028310565 -0.049285464 -0.48315778 -0.4584544 -0.3307298 0.44386408
0.09185121 -0.053450443 -0.4001308 0.058747858 0.29264525 -0.45515224 -0.4443998 0.37105572
-0.30269206 0.015471764 -0.73164666 -0.31392816 0.6578821 -0.44072142 0.45796165 -0.09809454
0.11577544 0.1262819 -0.45072773 -0.11762722 0.36510813 -0.30075458 -0.6632422 0.52699274
-0.26640463 -0.35338557 -0.25991726 -0.39793298 -0.4048119 0.6921823 0.40318573 -0.47467014
0.029366896 0.5999416 0.549928 -0.41514137 -0.34080607 -0.33540705 -0.6606846 0.44067085
-0.71892744 0.5116787 -0.38774437 0.38490662 -0.07765459 0.25813255 0.5189135 0.10276757
-0.19011953 -0.58226085 -0.5009571 -0.19781822 -0.90192074 -0.83818495 0.33158764 -0.8325807
-0.51928985 -0.26109096 0.46889085 -0.5739254 -0.7893664 -0.32189065 -0.27736318 -0.2909827
0.48176575 0.49602497 0.5740348 -0.6639293 -0.950583 0.42236 -0.24256904 0.38053665
0.6576855 -1.2711995 -1.0927099 -0.52603906 0.7029497 -0.22919098 0.5689 -0.3179288
-0.39355066 -0.6037321 -0.25743958 -0.69015753 0.38619027 0.38628313 0.41441113 -0.6985
-0.448836 0.17741108 0.30556804 0.25410604 0.6581071 -0.31002003 0.44011807 -0.12802254
0.18384194 -0.13885364 -0.34048638 0.33089754 -0.31666538 -0.5744906 0.42837167 -0.82584846
0.5414954 -0.5744472 -0.9332598 -0.35870448 -0.23968907 -0.16966307 0.014415599 0.25517443
-0.7019663 -0.22830513 0.5108603 0.5516246 0.13914995 -0.18030223 -0.44535863 -0.29314184
-0.92227584 -0.88296825 -0.51848567 -1.0069592 -0.34293172 0.30397433 0.49122146 -0.63462764
-0.44255772 -0.5502179 -0.42759508 0.62803924 0.73001605 0.68149304 -0.31873232 -0.6743972
0.66585803 -0.35525948 -0.33560547 0.50546753 0.8149476 -0.5552999 -1.1222601 -0.6529435
0.14867046 -0.04835965 -0.6072144 -0.17616704 -1.056306 -0.27193493 0.3326665 0.41710413
-0.29803586 -0.03510537 0.5122745 -0.4480584 -0.7655775 -0.31205657 0.38774905 -0.5976772
0.48033068 -0.23095895 0.4171716 -0.41459656 0.17787227 -0.29556754 -0.53364396 0.38830358
-1.0917708 -0.8089947 -1.1988921 0.4223194 0.6436651 -1.0396401 -1.0162934 0.38197696
0.69649595 -0.24720149 -0.53404397 -0.42556524 -0.26265743 -0.53134054 -0.2900113 0.41722512
-0.41327697 -0.95009553 0.450722 -0.9314129 -0.6542839 0.5347425 0.37860677 -0.62998295
0.10117074 0.49316195 0.24550566 -0.7319258 0.14522322 0.39860144 0.18983005 -0.56930023
0.31387356 0.5432016 -0.022380117 -0.41332278 -0.06291891 -0.4851314 -0.24415065 -0.2350098
-0.47680473 -0.05917257 0.65499854 0.28943342 0.066224314 -0.14275582 -0.26990944 0.03941651
-0.50294536 -0.60546434 -0.35564932 0.3994534 -0.8940248 -0.60862136 0.43890846 -0.26616946
-0.35095814 -0.484406 -0.46388897 0.46840972 -0.68922514 0.435759 0.5170687 0.41072968
-0.70292354 -1.0179384 0.4797476 0.30129933 0.076779954 0.6263625 -0.26997483 0.48026913
-0.20405126 -0.8879686 0.30711633 0.35173374 0.026750822 -0.12052646 -0.06955569 -0.8166279
00000000: fc60 e83e 71cb d1bc 8feb e7bc 8edf 49bd
00000010: 7560 f7be 89ba eabe 6b55 a9be 2742 e33e
00000020: 7d1c bc3d daee 5abd f2dd ccbe 98a1 703d
00000030: 99d5 953e b709 e9be 5f88 e3be 04fb bd3e
00000040: 74fa 9abe 487d 7d3c 324d 3bbf 31bb a0be
00000050: f66a 283f 3da6 e1be f379 ea3e cae5 c8bd
00000060: ad1b ed3d 0b50 013e c9c5 e6be 8ae6 f0bd
00000070: 74ef ba3e 81fc 99be 3eca 29bf ffe8 063f
00000080: 3066 88be f4ee b4be e013 85be dfbd cbbe
00000090: 8143 cfbe dc32 313f 5c6e ce3e f707 f3be
000000a0: d892 f03c c695 193f 15c8 0c3f 698d d4be
000000b0: 227e aebe 79ba abbe a022 29bf 9c9f e13e
000000c0: a10b 38bf 60fd 023f 6e86 c6be 7b12 c53e
000000d0: 5f09 9fbd f329 843e 84d7 043f ce77 d23d
000000e0: b2ae 42be 0c0f 15bf b93e 00bf dc90 4abe
000000f0: 47e4 66bf 4a93 56bf dbc5 a93e 0224 55bf
00000100: 2ef0 04bf b7ad 85be 7612 f03e c6ec 12bf
00000110: eb13 4abf dace a4be 8c02 8ebe affb 94be
00000120: 00aa f63e fcf6 fd3e f2f3 123f 45f7 29bf
00000130: 6859 73bf 923f d83e 0564 78be b3d5 c23e
00000140: 145e 283f aab6 a2bf ebdd 8bbf 7faa 06bf
00000150: 83f4 333f 0ab1 6abe 6ea3 113f 90c7 a2be
00000160: 797f c9be 308e 1abf 1fcf 83be 2aae 30bf
00000170: bbba c53e e7c6 c53e b22d d43e e5d0 32bf
00000180: d5cd e5be 40ab 353e 6a73 9c3e 301a 823e
00000190: b579 283f f2ba 9ebe 2857 e13e 5718 03be
000001a0: 1041 3c3e a62f 0ebe 3b54 aebe 676b a93e
000001b0: f721 a2be d111 13bf 8853 db3e ce6a 53bf
000001c0: 719f 0a3f f90e 13bf 1dea 6ebf 1da8 b7be
000001d0: 0d71 75be 28bc 2dbe 682f 6c3c 39a6 823e
000001e0: 10b4 33bf d2c8 69be bec7 023f 4537 0d3f
000001f0: 537d 0e3e 26a1 38be 0c06 e4be b016 96be
00000200: 451a 6cbf 350a 62bf 7abb 04bf 0ae4 80bf
00000210: bf94 afbe 86a2 9b3e 6181 fb3e f576 22bf
00000220: ed96 e2be 15db 0cbf beed dabe 2ec7 203f
00000230: 55e2 3a3f 5476 2e3f e230 a3be 4ba5 2cbf
00000240: ac75 2a3f 92e4 b5be 7bd4 abbe 5266 013f
00000250: 68a0 503f 2228 0ebf 38a6 8fbf 4e27 27bf
00000260: 123d 183e c514 46bd 6772 1bbf 2265 34be
00000270: 0935 87bf 0e3b 8bbe 4353 aa3e ac8e d53e
00000280: 2898 98be a6ca 0fbd 6c24 033f e967 e5be
00000290: e3fc 43bf e1c5 9fbe 0b87 c63e 5f01 19bf
000002a0: e7ed f53e 8180 6cbe 8497 d53e 0046 d4be
000002b0: 2624 363e a154 97be e49c 08bf bacf c63e
000002c0: 25bf 8bbf 471a 4fbf 4c75 99bf 403a d83e
000002d0: 3cc7 243f ed12 85bf e715 82bf 7c92 c33e
000002e0: 8f4d 323f 6322 7dbe 1bb7 08bf b0e3 d9be
000002f0: 097b 86be ef05 08bf 5c7c 94be 889e d53e
00000300: 0a99 d3be 7639 73bf 09c5 e63e 1371 6ebf
00000310: 267f 27bf e2e4 083f bfd8 c13e 9046 21bf
00000320: 9b32 cf3d b97f fc3e d665 7b3e 7d5f 3bbf
00000330: 65b5 143e 7d15 cc3e cf62 423e a9bd 11bf
00000340: 09b4 a03e 430f 0b3f 8256 b7bc 0b9f d3be
00000350: a1db 80bd 2563 f8be a102 7abe 69a6 70be
00000360: c01f f4be f05e 72bd fcad 273f 9e30 943e
00000370: 9da0 873d 952e 12be 9231 8abe 3573 213d
00000380: 07c1 00bf b6ff 1abf ab17 b6be 2885 cc3e
00000390: cfde 64bf 9cce 1bbf 9cb8 e03e 5d47 88be
000003a0: c9b0 b3be 1004 f8be db82 edbe 66d3 ef3e
000003b0: 0f71 30bf ce1b df3e 9d5e 043f 294b d23e
000003c0: ccf2 33bf ce4b 82bf 7aa1 f53e e843 9a3e
000003d0: cf3e 9d3d 4b59 203f 243a 8abe d6e5 f53e
000003e0: d0f2 50be e951 63bf 5a3e 9d3e 7216 b43e
000003f0: 8a24 db3c 94d6 f6bd 3773 8ebd 870e 51bf
